…
         3.0       0.53      0.90      0.66       162
         4.0       0.98      0.98      0.98      1608

    accuracy                           0.97     21891
   macro avg       0.81      0.92      0.85     21891
weighted avg       0.97      0.97      0.97     21891




Model: "sequential"
┏━━━━━━━━━━━━━━━━━━━━━━━━━━━━━━━━━━━━━━┳━━━━━━━━━━━━━━━━━━━━━━━━━━━━━┳━━━━━━━━━━━━━━━━━┓
┃ Layer (type)                         ┃ Output Shape                ┃         Param # ┃
┡━━━━━━━━━━━━━━━━━━━━━━━━━━━━━━━━━━━━━━╇━━━━━━━━━━━━━━━━━━━━━━━━━━━━━╇━━━━━━━━━━━━━━━━━┩
│ conv1d (Conv1D)                      │ (None, 185, 32)             │             128 │
├──────────────────────────────────────┼─────────────────────────────┼─────────────────┤
│ max_pooling1d (MaxPooling1D)         │ (None, 92, 32)              │               0 │
├──────────────────────────────────────┼─────────────────────────────┼─────────────────┤
│ conv1d_1 (Conv1D)                    │ (None, 90, 64)              │           6,208 │
├──────────────────────────────────────┼─────────────────────────────┼─────────────────┤
│ max_pooling1d_1 (MaxPooling1D)       │ (None, 45, 64)              │               0 │
├──────────────────────────────────────┼─────────────────────────────┼─────────────────┤
│ conv1d_2 (Conv1D)                    │ (None, 43, 128)             │          24,704 │
├──────────────────────────────────────┼─────────────────────────────┼─────────────────┤
│ max_pooling1d_2 (MaxPooling1D)       │ (None, 21, 128)             │               0 │
├──────────────────────────────────────┼─────────────────────────────┼─────────────────┤
│ conv1d_3 (Conv1D)                    │ (None, 19, 256)             │          98,560 │
├──────────────────────────────────────┼─────────────────────────────┼─────────────────┤
│ max_pooling1d_3 (MaxPooling1D)       │ (None, 9, 256)              │               0 │
├──────────────────────────────────────┼─────────────────────────────┼─────────────────┤
│ lstm (LSTM)                          │ (None, 64)                  │          82,176 │
├──────────────────────────────────────┼─────────────────────────────┼─────────────────┤
│ dense (Dense)                        │ (None, 5)                   │             325 │
└──────────────────────────────────────┴─────────────────────────────┴─────────────────┘
 Total params: 212,101 (828.52 KB)
 Trainable params: 212,101 (828.52 KB)
 Non-trainable params: 0 (0.00 B)
